src/saved_data/soren_diskret_run/model.pt (torch_old, 900029 bytes, 84 tensors)

encoder1.encoder.0.convolutional.weight f4 [16, 3, 3, 3]
000000 5b 04 1c be 50 63 e4 bc 2f 3c 7e bc 83 17 29 be
       -0.15236036 -0.027879387 -0.015517279 -0.16512875
000010 d0 77 44 bd 8d 6b 78 bd ad 44 2f 3e 24 7e be 3d
       -0.047965825 -0.060649443 0.17116041 0.09301403
000020 85 bf 1f bd 00 37 27 bd 7d dc ce bd 62 8a d2 bc
       -0.039001007 -0.040823936 -0.101006486 -0.025700752
000030 8c 26 75 3d 88 0d b9 bd 91 28 d4 bd 76 1b aa bd
       0.059851214 -0.09035784 -0.103593 -0.08306019
000040 4c 89 e4 3d ce b9 15 3e 2a 28 42 3e 0c 94 4e 3e
       0.11159 0.1462166 0.18960634 0.20173663
000050 70 b3 3a 3d 79 0b 12 be 52 ed 27 be b8 5c fe bd
       0.04558128 -0.14262189 -0.16399124 -0.124200284
000060 13 1d fa bd ca 25 5b 3d 44 3c 25 3e 26 b3 c1 3d
       -0.12212577 0.053502835 0.16136271 0.09457998
000070 fc 06 4d 3e 54 90 0d 3e 8f dd 1c be 11 14 81 3c
       0.20022196 0.13824588 -0.15318893 0.015756639
000080 ff e9 02 be 17 c3 fd bb 6a 45 86 3c 54 14 02 3e
       -0.12784575 -0.007744204 0.016390521 0.12703067
000090 96 6f d3 3d a1 23 bf bd 45 a1 21 3d 56 cb c7 3d
       0.10324018 -0.093329675 0.03946044 0.0975558
0000a0 98 58 62 be 2b c0 e5 bd e3 d4 b8 bd 22 ad a1 bd
       -0.22104108 -0.11218294 -0.0902498 -0.078943506
0000b0 8d 3e 19 3e 63 12 06 3d a9 da 1a 3e c3 07 8a bd
       0.14965267 0.03273238 0.15122475 -0.06739762
0000c0 0f 88 d0 bb 41 93 34 3e 9f 33 54 3c 34 79 c5 3d
       -0.0063638757 0.17634298 0.012951761 0.09642258
0000d0 05 88 87 3c d4 c6 26 3e 12 c3 2f 3d 0c 88 af 3d
       0.016544351 0.16286784 0.042910643 0.08570871
0000e0 a9 ea f3 bc d5 69 bc 3d 63 ed 6f bd 06 2a 0d be
       -0.02977498 0.09199873 -0.058576 -0.13785562
0000f0 ed 2b 01 3c f6 9a c8 3d 44 d9 ee bd 37 8b b7 bc
       0.007884008 0.097951815 -0.11662534 -0.02240525
000100 32 cc 4d be a9 36 b0 bc 80 3c 4f be f3 f3 2d be
       -0.20097426 -0.021510439 -0.20237923 -0.1698759
000110 91 a5 38 3b 8b 2b 47 be f3 ae ab 3c be d5 d6 3d
       0.0028174857 -0.19450204 0.020957446 0.10489987
000120 63 50 d3 3d 62 52 b0 3d a4 9f 20 3e 24 87 0d bd
       0.10318067 0.08609463 0.15685898 -0.03455271
000130 b3 14 c5 3d 31 00 12 3e 7d d2 57 3d cb e5 98 bd
       0.09623089 0.14257886 0.05269097 -0.074657045
000140 8e da 50 3e 17 d6 17 be 1a 55 12 3e 76 ed b1 3d
       0.20395872 -0.14827763 0.14290276 0.0868787
000150 f3 7c 32 3e a8 9b e3 b8 14 94 14 3e 71 d6 73 3e
       0.17430477 -0.00010853197 0.14509612 0.23812272
000160 52 16 6c 3e 76 f4 77 3e b0 3f 88 bc fa ff 0c 3e
       0.2305539 0.24214348 -0.016631931 0.13769522
000170 35 fb f6 3d fa 5f e6 bd e6 81 4a be 39 c1 91 3d
       0.12059633 -0.11248775 -0.19776115 0.071169324
000180 46 3e 2a 3e 6a ee 21 3e f0 04 41 3e 45 07 4f 3c
       0.16625318 0.15813604 0.1884954 0.012636011
000190 6f e9 c2 3b 55 bf d9 bd 61 0b 58 3c 74 33 f2 ba
       0.0059482376 -0.10632197 0.013186307 -0.0018478469
0001a0 71 58 42 be 45 b3 b7 3c 22 a4 07 3e c6 63 b0 bd
       -0.1897905 0.02242435 0.13246205 -0.0861278
0001b0 60 c3 d2 bd 7c 36 98 3b ce 16 3b 3d b3 36 ad 3d
       -0.10291171 0.004645167 0.045676045 0.08457699
0001c0 1e 48 fb bd c5 49 ab 3c 32 eb 4c 3d 0e a6 eb bd
       -0.12269615 0.0209092 0.050028987 -0.11506282
0001d0 6a bd 35 3d 4c 48 6d 3e cd 91 79 bd c8 01 35 be
       0.044370092 0.2317211 -0.060930062 -0.1767646
0001e0 85 fc c8 bd 21 c3 13 be 71 cc 0e 3e 60 91 00 bc
       -0.09813789 -0.14429905 0.13945176 -0.00784716
0001f0 59 ea 08 be 9c f4 16 be 11 84 fa bd 56 2a 12 3e
       -0.13370647 -0.14741749 -0.12232221 0.14273962
000200 65 db c9 bc aa e9 71 bd c2 7a 65 bc d8 f9 25 be
       -0.024640748 -0.05906073 -0.0140063185 -0.16208589
000210 1f 89 6b be af 82 90 bd cd ee 7b bd 3c 16 a9 bd
       -0.23001526 -0.07056176 -0.061507035 -0.08256194
000220 7c cf 1e 3e f3 4d e1 bd 8a 1c be bd d1 3f 09 be
       0.15508837 -0.11001196 -0.09282787 -0.1340325
000230 dc 12 04 3d 1d 3b 39 3d 4b 5b 0e 3e 83 16 82 bd
       0.03224455 0.04522239 0.13902013 -0.0635195
000240 c4 78 53 be 30 76 3b be 9c 60 91 bd f1 ee 26 3e
       -0.20651537 -0.18306804 -0.07098505 0.16302086
000250 e7 98 44 be 77 ca 61 bd 5a b1 79 3b c7 3b 0b be
       -0.19198953 -0.055124726 0.0038100095 -0.13597022
000260 a2 19 9b 3d 3b c9 c2 bd e2 d4 bb 3d ef 0f 08 3d
       0.075732484 -0.09511038 0.091714635 0.03321832
000270 1c f8 63 3e a8 57 5b 3e 34 2b 0f 3d b5 87 72 3e
       0.22262615 0.21420157 0.03495331 0.2368458
000280 48 83 0a 3c 04 04 0a be c5 84 6e bd b5 ee 24 3d
       0.008454151 -0.13478094 -0.058232088 0.04026671
000290 60 bf 4c 3e be c1 96 3d c9 c5 08 3e 30 ca 90 b9
       0.19994879 0.07361172 0.13356699 -0.00027616462
0002a0 16 49 17 3d 3a 21 01 3e cf d5 b0 3d 98 52 25 be
       0.036934935 0.12610331 0.08634531 -0.16144788
0002b0 ab af b0 bd a8 57 b0 bd f7 76 8e bd dc fc fb 3c
       -0.08627256 -0.08610469 -0.069562845 0.030760221
0002c0 82 f6 01 be c0 54 89 3c ca 77 3a 3c 9b a1 ed bd
       -0.12691692 0.016764045 0.011381099 -0.116030894
0002d0 92 d2 6d bd 02 81 22 be 1d 24 18 3e fd e9 be bc
       -0.058062144 -0.15869525 0.14857526 -0.023304934
0002e0 5d 04 6a 3d a1 5b ff 3d bf 49 38 bd c8 36 fb bc
       0.057133067 0.12468649 -0.044992205 -0.03066577
0002f0 d3 0f 4d bd 22 91 fd bd 36 d8 1a bd 9b 6f 07 be
       -0.05006392 -0.123811975 -0.03780385 -0.13226168
000300 87 af 1e bd 26 46 55 bd 09 5c 1d bd 5b 34 f9 3d
       -0.038741615 -0.052068852 -0.03841785 0.12168189
000310 f3 d3 86 3d 75 a3 ba bd f1 12 7f 3d cd 08 b0 bd
       0.06583395 -0.09113208 0.062273923 -0.085954286
000320 b9 9b c3 bd e2 5e 97 bc ef 04 e7 3c 7a 21 a1 bd
       -0.09551186 -0.01847786 0.028200595 -0.07867713
000330 a1 88 3f 3e 0d 05 c5 3d 3d 38 a3 bc e8 15 b6 3d
       0.18704464 0.09620104 -0.019924277 0.08890897
000340 e6 65 0e be 52 66 47 ba 06 ff d9 bd a7 7e 03 3e
       -0.13906059 -0.00076064945 -0.10644345 0.12841283
000350 e4 3e 26 bc 28 35 03 3e c5 a6 0e 3e 65 3b 2e be
       -0.01014683 0.12813246 0.13930805 -0.17014845
000360 2f c6 20 be 08 3c 25 be 8b c9 10 3e 40 4f 3c be
       -0.15700601 -0.16136181 0.14139383 -0.18389606
000370 d4 8e f4 3d 63 ab 85 bc e2 b4 17 bd 1a dc dd bd
       0.11941305 -0.016317075 -0.037037738 -0.10832997
000380 ec 55 82 bd 9b d9 38 bd 8c a7 07 bd 3d 4e 13 be
       -0.063640445 -0.0451294 -0.03311877 -0.14385314
000390 63 a9 0c 3e 13 b5 97 3d 67 62 32 be 6f 96 13 bd
       0.13736491 0.07407584 -0.1742035 -0.036032137
0003a0 73 03 f9 3a 53 53 94 3d 2b 91 b9 3c ad 39 13 3e
       0.001899822 0.07242455 0.02265223 0.1437747
0003b0 53 79 a4 3d a2 e0 f3 bd e2 88 20 3d 90 bc fb 3d
       0.08030953 -0.1190808 0.03919304 0.12291825
0003c0 3d a0 ec bc 16 d8 30 3e 06 fb 19 3e 24 7a 98 3c
       -0.028885001 0.1726993 0.15037164 0.018612929
0003d0 a4 84 1f be 23 ab 1e be 81 c0 30 be be 79 bf bc
       -0.15577942 -0.15494971 -0.17260934 -0.02337348
0003e0 18 eb bb bd ef 07 1c be 16 32 27 be bb 10 3f be
       -0.091757 -0.15237401 -0.163277 -0.18658726
0003f0 eb f6 27 3d 78 17 d1 3d c3 c6 16 3e 2c b9 54 3d
       0.041006964 0.102095544 0.14724259 0.051934406

encoder1.encoder.0.convolutional.bias f4 [16]
000000 70 da e7 be f4 36 27 3e 31 2c 9b bd 38 98 b2 bd
       -0.45283842 0.16329557 -0.07576788 -0.0872044
000010 1a b3 83 be 02 99 25 3e db e2 fb bc 2c b5 d9 be
       -0.2572258 0.16171649 -0.030747822 -0.42521036
000020 01 6e d9 be 7f 54 38 be 2b 15 29 be ae 2a de bc
       -0.4246674 -0.18000983 -0.16511981 -0.02711996
000030 69 d5 62 be 17 c0 e9 39 33 96 5d bd 47 af b9 be
       -0.22151722 0.0004458434 -0.05409832 -0.36266539

encoder1.encoder.0.bnorm.weight f4 [16]
000000 d6 d6 82 3f 69 26 69 3f f0 cb 7f 3f 43 48 62 3f
       1.0221813 0.91074234 0.9992056 0.8839151
000010 74 98 67 3f f3 49 68 3f e2 9f 73 3f 7d 3d 86 3f
       0.90467 0.9073784 0.95165837 1.0487515
000020 3c 5f 8d 3f fd 37 71 3f 22 f0 85 3f d8 86 53 3f
       1.1044688 0.94226056 1.0463908 0.8262763
000030 61 cf 6a 3f 77 6a 60 3f a9 bf 85 3f 0f 66 8e 3f
       0.91722685 0.8766245 1.0449115 1.1124896

encoder1.encoder.0.bnorm.bias f4 [16]
000000 c4 03 49 be 0c b5 4a 3d 5f cf 62 3d cf 58 0d be
       -0.19630343 0.049489066 0.055373546 -0.13803409
000010 ec d2 0f bd 16 e0 92 bd 2a 9c 3e 3d be 45 d9 bd
       -0.03511326 -0.07171647 0.04653565 -0.106090054
000020 49 65 cb bd 4a 11 e1 3c 5f 55 a4 bd ec 78 ed bd
       -0.09931428 0.027474064 -0.08024096 -0.1159533
000030 57 1e 45 be 89 d3 83 3c 59 bd 24 bd 2a 19 e8 bd
       -0.19249855 0.016092079 -0.04021964 -0.11332925

encoder1.encoder.0.bnorm.running_mean f4 [16]
000000 32 64 e6 be 43 52 1d 3e 4f bf 9b bd 77 a6 d5 bd
       -0.44998318 0.15363412 -0.076048486 -0.10432141
000010 7c 4e 73 be 3c ed 26 3e e7 97 cd bc 5f 58 d9 be
       -0.23760408 0.16301435 -0.025096847 -0.42450234
000020 8f 30 db be 71 d6 38 be f6 ce 29 be 97 99 a9 bc
       -0.42810485 -0.18050553 -0.16582856 -0.02070312
000030 15 25 61 be b5 79 9e bb 0f 09 54 bd 23 7d ba be
       -0.21986802 -0.004836286 -0.05176645 -0.36423597

encoder1.encoder.0.bnorm.running_var f4 [16]
000000 7a e8 c6 3c 43 51 3a 3c 11 b9 9e 3a 89 c3 27 3d
       0.024280775 0.011371913 0.0012109597 0.04095796
000010 6e 74 19 3d c2 01 76 3b 57 a2 06 3c a9 e8 b4 3c
       0.03746455 0.0037537669 0.008217416 0.022083597
000020 03 1b c7 3c c4 bf a0 3c 0d 26 6d 3b 6e ee a4 3b
       0.024304872 0.019622691 0.003618601 0.005033306
000030 5a 7b c2 3b bc a0 1d 3b d3 62 bf 3a 6c d9 88 3c
       0.005935115 0.0024052104 0.0014601595 0.016705237

encoder1.encoder.1.convolutional.weight f4 [16, 16, 3, 3]
000000 03 f7 95 bd 81 a5 a4 bd 47 98 76 bd 4e 74 1a bd
       -0.07322504 -0.0803938 -0.060203817 -0.037708573
000010 a1 da b7 bc 8f 66 51 bd 91 42 6d bd cf 48 93 3c
       -0.022443118 -0.051123198 -0.05792481 0.017979054
000020 d3 b1 3b bd 3a 3d 83 bc bb 1f 00 3d cf c5 23 3d
       -0.045823883 -0.016020406 0.03128026 0.039983567
000030 01 09 3b bd b6 62 1e 3d 85 57 a2 3d 37 8e c2 3b
       -0.045662884 0.038668357 0.07926849 0.0059373635
000040 b8 6c 80 3d 2d 27 4e 3d 5e 28 f2 3c 5f df 66 bd
       0.062707365 0.05033033 0.029560264 -0.056365367
000050 d5 36 2a 3c e4 92 32 3d 1e d1 c3 3b 6c d2 8c 3c
       0.01038905 0.043597117 0.0059758564 0.01719018
000060 a6 95 ff 3d d8 6c 98 3d f2 b6 a6 3c 4f 3a d0 bd
       0.12479715 0.07442635 0.020350907 -0.101673715
000070 0a a3 83 bd 33 89 23 bd 3f 64 99 bd 83 68 99 bd
       -0.064275816 -0.039925765 -0.074898235 -0.07490637
000080 dc 87 0f 3d 60 eb ce 3c 70 09 3b 3d fc a4 5c 3d
       0.035041675 0.02525872 0.045663297 0.05386828
000090 ea 4a b8 bd be 0e 89 bd 3f b3 3d bd a9 20 91 bd
       -0.08998664 -0.06692265 -0.04631352 -0.070863076
0000a0 b1 bb ca bd 02 8c 50 bd bf c6 a6 3b c9 4a 90 bd
       -0.098990805 -0.05091477 0.0050896103 -0.07045514
0000b0 12 4a 03 bd d6 07 d2 bd c9 8d 37 3c 19 93 28 3d
       -0.03205306 -0.10255401 0.011203238 0.04115591
0000c0 0b b3 80 bd 49 36 c5 3c 7d ae 15 3d 75 01 da 3b
       -0.0628415 0.024073737 0.036543358 0.0066530057
0000d0 56 fd 0f bd 02 7f 0f 3e 08 1f c4 bd 5c 55 d7 bd
       -0.03515371 0.14013293 -0.09576231 -0.10514328
0000e0 ec bb 8d bd 62 a8 df 3c 33 36 e0 bd 3b be c5 bc
       -0.06920609 0.02730197 -0.10947838 -0.02413856
0000f0 c2 95 30 3d 4e 69 1a bd 59 f6 91 bd 0b 14 2d bd
       0.04311157 -0.037698083 -0.07127065 -0.042255443
000100 f3 a2 09 3c 84 03 73 bb 86 4d e2 bd 22 cd 03 3d
       0.0084006665 -0.0037080953 -0.11049943 0.03217805
000110 27 80 2d 3e ac 1f cf bd 02 da 08 3d 6d 96 0e 3d
       0.16943417 -0.10113463 0.033411033 0.034811426
000120 f2 b7 3f 3c 3f c9 27 3e 82 b9 94 bc 08 f5 93 3d
       0.011701571 0.16385363 -0.018154863 0.072244704
000130 6f e5 fc 3d 57 cc 57 3d 3d 65 e0 3d 71 98 39 3e
       0.123484485 0.052685108 0.1095681 0.18124558
000140 a2 5d d9 bc 91 78 49 bd a0 53 19 bc 19 df 7c 3d
       -0.026533905 -0.049187247 -0.009358317 0.0617362
000150 42 27 8e bd 7d 6b 0c bd bd d4 75 3d f6 bd 35 bd
       -0.069410816 -0.034282196 0.060017336 -0.044370614
000160 dd 82 38 bd 19 9a 05 3d 50 86 31 3d 07 d0 87 bc
       -0.045046676 0.032617662 0.04334098 -0.016578687
000170 89 0c 25 bd 78 51 c4 3d 33 ce 28 3c f7 ab 38 3d
       -0.040295158 0.095858514 0.010303068 0.045085873
000180 62 72 28 3d b1 bf 51 bc c4 fd 90 bd e1 6b da bd
       0.04112471 -0.01280205 -0.07079652 -0.106651075
000190 cf a7 ff bb 61 a0 2b 3d 3f 3c d7 bc 7e 79 e6 3c
       -0.0078019868 0.041900996 -0.026273845 0.028134104
0001a0 1a b7 94 3c 6d 54 c0 3c c5 8f 0d bc 7e 42 cd 3d
       0.018153716 0.023477757 -0.008640234 0.10022448
0001b0 39 63 8b 3d ec 5f 8f bd ea 22 f1 bc d7 af 58 3c
       0.068060346 -0.070007175 -0.029435594 0.013225517
0001c0 f2 4b a3 bd 58 98 b5 bd f9 5d a6 bc 32 f0 fa bc
       -0.0797347 -0.08866948 -0.020308482 -0.030632112
0001d0 43 b3 12 bc 3c 50 39 3d d5 bb bd bc 88 95 6f 3d
       -0.008953872 0.045242533 -0.023160854 0.058492213
0001e0 9d 62 01 bd e5 cf 15 bc e4 20 65 3d 12 0c 8f bc
       -0.031588186 -0.009143804 0.05593957 -0.01746181
0001f0 95 0b 70 3d 1f 5c 91 bd 0e 47 ce bd c8 4b 08 bd
       0.058604795 -0.07097649 -0.10072146 -0.033275396
000200 05 0c 54 bd 6c 5e 81 bd 8e 88 85 bd cd 0c 2d bd
       -0.051769275 -0.06316838 -0.06520186 -0.042248536
000210 fb dc d5 bc 3b c4 72 bc 65 1b bb bd 7b 48 85 3d
       -0.026106348 -0.014817293 -0.091360845 0.06507965
000220 c3 65 c1 3b 1a 3e 83 3d ee 8a 41 bd 02 4f fa bb
       0.0059020235 0.06408329 -0.047251634 -0.007638813
000230 e6 8f 85 3d 51 b0 89 bd 71 cf ba bd 42 ee 2d 3b
       0.06521587 -0.06723083 -0.091215976 0.0026539718
000240 64 19 a4 3d c2 db 75 bd 77 34 0e 3b 96 92 80 bc
       0.080126554 -0.06002403 0.0021698752 -0.015694898
000250 6e 10 90 3c 43 6d 7d bd 2a 2e 67 3d 09 36 cf 3c
       0.01758596 -0.06187178 0.05644051 0.02529432
000260 1b b9 35 bd e3 e7 f2 3c 7c 2e 55 3c 8b fc 03 bd
       -0.044365983 0.029651588 0.013011571 -0.032223266
000270 1d ab 0f 3d 8c d2 06 3d f6 3a 0e 3d 85 89 31 3d
       0.035075296 0.032915637 0.0347242 0.04334404
000280 0d 57 bd 3c 8d 9b 1c 3d 2c c7 64 bd e8 3e 1b bb
       0.023112798 0.038234282 -0.055854008 -0.0023688618
000290 74 1f 51 bd e8 a5 35 3d 15 09 cb 3c b0 79 89 bd
       -0.051055387 0.044347674 0.024784604 -0.06712663
0002a0 c8 a8 af bc ff 17 1e bd 35 f2 12 3c 24 90 69 bd
       -0.021442786 -0.038597103 0.0089688795 -0.05702223
0002b0 00 36 f6 bc ff 13 6e bd 6f 52 4e bd 80 75 6f bd
       -0.030055046 -0.05812454 -0.050371584 -0.058461666
0002c0 a0 e7 ad bc dd 0b 91 3c 09 8a 43 bd e8 56 05 3b
       -0.021228611 0.017705852 -0.047739062 0.002034599
0002d0 f5 a8 99 bc b8 90 8a bc e2 78 31 bc be 4e c5 3c
       -0.018757323 -0.01691471 -0.010832043 0.024085399
0002e0 47 89 51 3d 39 43 58 bd cf 51 68 bb ae 9e f4 3a
       0.05115631 -0.052798484 -0.0035449152 0.0018663013
0002f0 79 1f 64 bd ec 89 bd bd 29 70 1e bd a6 1c c1 bc
       -0.055694077 -0.09254822 -0.038681183 -0.023573231
000300 8e b6 ad bd 6b ba 10 bc 6b cc a4 bd 7e 21 6a bd
       -0.08482085 -0.008833508 -0.08046802 -0.057160847
000310 ec 98 54 bd 7f e0 4a bd 06 54 4e 3d 0b 07 e0 3c
       -0.05190365 -0.049530502 0.0503731 0.027347108
000320 f9 b4 8c 3d 92 18 5b bd 3f df 04 3e 42 99 09 3d
       0.06870455 -0.05349023 0.12975787 0.033593424
000330 09 4e 8b bd ae bb 7d 3d 30 ca 18 3e c2 79 b0 3c
       -0.068019934 0.061946563 0.14920878 0.021542434
000340 64 01 8f bc d8 7b 97 3d ec b8 21 bd 65 64 55 bd
       -0.017456718 0.07396668 -0.039482996 -0.052097697
000350 fc 23 9b bd 5d e5 2f bd 51 c0 db bd 5d 28 68 3d
       -0.07575223 -0.042943347 -0.10730041 0.05667912
000360 33 92 8a 3d 12 84 14 3d c7 af 6e 3e c4 1b 85 3d
       0.067661665 0.036258765 0.23309241 0.064994365
000370 11 67 9b 3c 77 93 28 3d 89 aa ee 3d ce 17 0e bd
       0.018970044 0.04115626 0.11653621 -0.03469067
000380 31 03 0c be 25 42 53 3d 7a 55 b6 bc 5f ac 6a bd
       -0.13673092 0.051576752 -0.022257555 -0.057293292
000390 bf ce 22 bc 19 80 4f bd a2 f3 31 bd 31 11 03 bc
       -0.009936987 -0.050659273 -0.043445237 -0.007999704
0003a0 ab 7d 6f 3c 5b e4 64 bd 74 ea 28 3d a0 77 82 bb
       0.014617364 -0.05588184 0.041239217 -0.0039815456
0003b0 29 5e 80 bd b9 7d 46 bb fc 91 06 3e 44 3e 37 bc
       -0.062679596 -0.003028734 0.13141626 -0.011184279
0003c0 62 1b fa 3d ac f9 77 3d 80 af 90 bd 39 7d 72 bd
       0.12212254 0.06054084 -0.07064724 -0.059201453
0003d0 3a 71 05 bd ac 67 6f ba 3f 46 19 bd d2 ad 5a bd
       -0.032578684 -0.0009132575 -0.037420508 -0.053388424
0003e0 3a cb 7b bc c7 16 0f 3d 9b e2 dc bc 25 2b 02 bd
       -0.015368277 0.03493383 -0.026963523 -0.031779427
0003f0 45 34 cf ba 79 ad 9c bc ac 5c ee 3c 39 94 72 3d
       -0.0015808424 -0.019125687 0.029096924 0.059223387

encoder1.encoder.1.convolutional.bias f4 [16]
000000 6c 2d c8 3d 24 87 a1 3d 38 3f 53 3e 00 02 82 3e
       0.097742885 0.07887104 0.20629585 0.2539215
000010 05 fa d0 3d ab c8 16 3d 41 30 43 3c b0 29 8a bd
       0.102039374 0.036812466 0.01191336 -0.067462325
000020 c8 c0 af 3d a5 f7 f6 bd b4 6e 6c bd c4 62 72 3d
       0.08581692 -0.12058953 -0.057722762 0.05917622
000030 18 51 71 bd 6a 79 14 3e 89 e4 7c 3e d7 5d 02 3d
       -0.058915228 0.14499441 0.24696554 0.031827774

encoder1.encoder.1.bnorm.weight f4 [16]
000000 38 9f 84 3f 06 a8 7c 3f 59 a4 7e 3f df 28 69 3f
       1.036109 0.98693883 0.99469525 0.9107799
000010 a5 44 83 3f bf a0 61 3f ef ca 7b 3f cd 96 81 3f
       1.0255324 0.88135904 0.9835653 1.0124146
000020 79 24 7a 3f a1 36 7f 3f 7a c5 78 3f ef 17 81 3f
       0.977119 0.9969273 0.97176325 1.0085429
000030 7c a2 7e 3f b6 e1 83 3f 65 8f 92 3f 6f 3a 6c 3f
       0.9946668 1.0303257 1.145001 0.9227666

encoder1.encoder.1.bnorm.bias f4 [16]
000000 7a 2f c1 bc f6 91 c6 3d 9e 3b 82 3d d2 17 11 3e
       -0.023582209 0.096958086 0.06359027 0.14169243
000010 32 37 cb bd 46 19 2f be 34 66 4a 3c 72 9a 9c 3c
       -0.09922637 -0.17099485 0.012353469 0.019116614
000020 a6 85 17 bd 99 3a 27 3d 69 49 8e 3c 44 ab 10 3e
       -0.03699269 0.040827367 0.017368989 0.14127833
000030 04 1c c2 bd 74 57 f4 3c b0 45 d7 3d ba 3d 88 bd
       -0.09478 0.029826857 0.10511339 -0.066523984

encoder1.encoder.1.bnorm.running_mean f4 [16]
000000 24 4f 07 be 77 ad 93 3e d6 e6 58 3d d7 13 b6 3d
       -0.13213784 0.2884328 0.052954517 0.08890503
000010 eb f2 95 be 0c 07 79 3f 55 6d 98 3e d7 3a 8a 3e
       -0.29286894 0.9727638 0.29770914 0.26998016
000020 54 57 7c 3c fc 92 0b 3e 6f 15 1e 3e 23 c4 b6 3e
       0.01540168 0.13630289 0.15437864 0.35696515
000030 6f 97 83 bd d1 92 f3 3d 73 fc 40 bd c1 cb ef bd
       -0.06425368 0.118932374 -0.047115754 -0.11708785

encoder1.encoder.1.bnorm.running_var f4 [16]
000000 3e cd 03 3f 59 80 cd 3e 43 a6 dd 3e c9 82 d4 3e
       0.5148505 0.40136984 0.4329091 0.4150603
000010 8a 99 e7 3e ee 42 1c 3f 61 b8 dd 3e 49 2b d7 3e
       0.45234329 0.61039627 0.43304732 0.4202521
000020 23 ca bc 3e 15 b0 dd 3e 0e 9f e8 3e f1 0f c9 3e
       0.36872968 0.43298402 0.4543385 0.39269975
000030 8a 78 d1 3e 28 c8 04 3f c2 11 cd 3e 89 02 db 3e
       0.40912277 0.51867914 0.4005261 0.42775372

encoder2.encoder.0.convolutional.weight f4 [32, 16, 3, 3]
000000 1d ac 51 3d 93 02 e9 3d 11 47 83 3d 3b 0a 8a 3d
       0.05118953 0.11377444 0.06410039 0.067402326
000010 e4 88 32 bc b6 7f 99 bc 13 25 13 3d 0d aa 93 3d
       -0.010896895 -0.018737655 0.03592403 0.07210169
000020 e1 ea 00 3e f5 f6 cc 3d e4 4f 70 bd c4 f2 95 3d
       0.12589599 0.10008041 -0.05866994 0.073216945
000030 19 11 43 3d bd eb 81 3d 37 5a ae 3d 05 c5 de 3d
       0.047623727 0.06343792 0.08513301 0.10877422
000040 2c 10 82 3d 09 49 92 bb 16 ae 34 3d 21 b3 a3 3d
       0.06350741 -0.004464273 0.044111334 0.079931505
000050 f8 b7 02 3d bf 53 8b bb 73 1d c3 3d 2b 6b e7 3d
       0.031913728 -0.0042519267 0.09527101 0.112997375
000060 03 d5 0d 3e a3 ad 89 3a 08 47 a7 3c 87 a8 0c bc
       0.13850789 0.0010504018 0.020419613 -0.008585102
000070 d7 3d a7 bd f8 1a 72 bd ff 5e 45 bc 33 c1 81 bd
       -0.08166092 -0.05910775 -0.012046575 -0.06335678
000080 dd ed 11 bb 15 91 76 3a 4c e6 2d bd b9 44 3c 3c
       -0.0022267022 0.0009405774 -0.042455956 0.011490994
000090 54 ae 4f 3d 15 e1 3b 3d 44 00 d2 3d 6d f8 e5 bd
       0.05070336 0.04586895 0.10253957 -0.11229024
0000a0 c1 fb 1c bd 8f 48 e6 bc e5 52 c7 bd 62 d9 3e 3b
       -0.03832603 -0.02811077 -0.09732608 0.002912127
0000b0 8f 51 06 3c 78 23 87 bd 75 01 47 bd e0 41 46 bd
       0.008198156 -0.06598562 -0.048585374 -0.048402667
0000c0 99 95 3c 3d b9 bc 9e bd 11 16 81 3d 07 25 7e bb
       0.046041105 -0.0775084 0.06303037 -0.0038779394
0000d0 9e 41 05 3c d5 5c 32 bd f2 97 c7 3c ba 2a 96 3d
       0.00813332 -0.043545563 0.024364445 0.07332368
0000e0 31 e6 e1 3d 7b 42 0d bc be 13 97 bc 6d e4 74 3d
       0.11030234 -0.008621807 -0.018442031 0.059788156
0000f0 45 45 d6 3b c6 a0 f9 3d d8 c8 2a 3d 9c 94 bc bd
       0.0065390193 0.12188868 0.041695446 -0.092080325
000100 1b c7 a4 bd 72 51 82 bc e4 41 5b 3d 9b 59 a4 bc
       -0.08045789 -0.015907977 0.053529635 -0.020062258
000110 48 5c 2e bd 0c 22 58 3d 12 ef cb bd 39 bf cc bc
       -0.042568475 0.052766845 -0.099577084 -0.024993526
000120 b5 77 24 3d 67 b6 d7 3d 64 81 ae 3d 54 0d 2a bd
       0.040153224 0.10532837 0.08520773 -0.041516617
000130 c4 0e aa bc 51 e5 89 bc 14 81 8f bd ee 66 aa 3d
       -0.020758994 -0.01683298 -0.070070416 0.083204135
000140 1d df 0a 3d 02 fa f3 bd ac bd cf bc d2 7b 09 bb
       0.033904184 -0.119129196 -0.025358997 -0.0020978344
000150 54 d1 2c bc ec 7b 5b 3d d6 7c 03 bd 11 2f 73 bd
       -0.010547955 0.053584978 -0.032101475 -0.059371058
000160 3e 35 88 bd fc 5f 72 3d 6c 94 c5 bc 62 52 b9 3b
       -0.0665078 0.05917357 -0.024118625 0.0056555727
000170 64 e5 88 bc 18 14 31 bb 0e 54 00 3d 9e 95 ab bd
       -0.016710944 -0.0027020033 0.03133016 -0.083781466
000180 b1 43 84 3d 85 24 86 3b df 5a 48 bd dd 55 6b 3d
       0.064582236 0.004093709 -0.048914786 0.057454932
000190 32 b3 10 3d 88 7d 40 3d ee 45 8d 3d 60 61 2b 3d
       0.035327144 0.046994716 0.06898104 0.04184091
0001a0 b7 17 d7 bd cc 3d 95 3d 36 f6 2e 3d a6 85 06 bd
       -0.1050257 0.072871774 0.042715274 -0.0328423
0001b0 4d 09 3f bc be 0e 9c bc b0 5e 24 3d 8b 2f e1 bb
       -0.011659932 -0.019049998 0.040129364 -0.0068721226
0001c0 85 9f ab bd f4 cc cb 3d 4e dd d1 bd d0 19 b7 bc
       -0.08380035 0.09951201 -0.10247289 -0.022351176
0001d0 05 c9 0d 3e e7 53 43 bc 56 d3 6c bc b9 f2 1f 3c
       0.13846214 -0.011921859 -0.014454683 0.009762459
0001e0 68 67 b7 3d 41 47 f5 3d e9 50 b4 3c 2f 9e a9 3c
       0.0895527 0.11976481 0.022011237 0.02070531
0001f0 b5 03 c4 3d 6f a2 ac 3d 00 52 8a 3d 65 ec c7 bd
       0.095710196 0.08429419 0.067539215 -0.097618856
000200 7f 93 f2 bc c1 c0 e9 3c 17 7e f7 3c 03 09 5a bd
       -0.029611347 0.028534295 0.030211492 -0.05323125
000210 6d 6f 24 3d 9d ed 6e bd 48 9a 82 3c 17 ac 33 bd
       0.040145326 -0.058332074 0.015942708 -0.04386529
000220 7e 84 1e 3d 08 ee 89 bd d7 1e a0 3d c0 05 17 3d
       0.038700573 -0.06734854 0.07818382 0.036870718
000230 57 84 88 bd 7a c8 a6 3d 36 14 66 3d a7 40 99 3d
       -0.06665867 0.081437066 0.05617162 0.074830346
000240 05 15 2f bd 53 d1 93 3d 4a 64 36 bd d4 83 55 bc
       -0.042744655 0.0721766 -0.044529237 -0.013031919
000250 65 5d c2 3d 1b e9 b8 3c 53 39 e5 bd d1 49 45 3d
       0.0949047 0.02257209 -0.11192574 0.0481661
000260 9e 9f dd bd 32 9a b2 3c 32 74 38 bb 99 a7 c2 bc
       -0.1082146 0.021802042 -0.002814543 -0.023761557
000270 2e 92 97 bd 12 1e 33 bd 96 c0 8b bd c9 a4 55 bd
       -0.074009284 -0.04372985 -0.06823842 -0.052159104
000280 97 d9 f3 bb dc 73 93 bc cd ef c8 3d e6 cb a9 3d
       -0.00744171 -0.017999582 0.09811363 0.08290844
000290 7c bf 83 bd dc cf 41 bd b7 5b 21 bd d4 12 d7 bc
       -0.06433007 -0.04731737 -0.039394107 -0.026254095
0002a0 16 66 4c bd 25 29 1a bd 41 df 93 bd b7 99 5c 3c
       -0.049902044 -0.037636895 -0.07220317 0.013464383
0002b0 fd 62 85 bc 11 a8 6a 3c c3 7f 79 bd b3 c3 88 3d
       -0.016282553 0.014322297 -0.06091286 0.06677952
0002c0 5c f2 0e 3d f0 7a d4 3c 69 72 67 3d 43 80 71 3d
       0.0348991 0.025937527 0.056505594 0.05896021
0002d0 61 89 e2 bd f8 46 0c bd 1c a7 22 3c 6a 0c bb 3c
       -0.11061359 -0.03424737 0.009927537 0.022833068
0002e0 c1 7f b1 bd 4c 30 3c 3c 84 49 53 bd 80 5d d1 bb
       -0.08666945 0.011486124 -0.05158378 -0.00638932
0002f0 ac 31 2f ba ce 53 85 bc 35 17 af bc b3 1f 91 bd
       -0.0006683122 -0.016275313 -0.02137337 -0.07086124
000300 f3 f0 65 3c f5 25 39 bc b4 1f b5 bd 05 fe 73 3d
       0.014034498 -0.011300554 -0.088439375 0.059568424
000310 33 af 35 bd f6 f9 f7 bd 4a 20 e5 bc 99 8e e1 bd
       -0.044356536 -0.12108223 -0.027969498 -0.110135265
000320 60 d8 00 bd ca 83 84 bd e6 78 83 bc e8 f0 ca bd
       -0.03145635 -0.06470449 -0.01604886 -0.099092305
000330 6f fc 42 bc 57 15 fe bd fa 51 a7 bd a3 c7 17 bd
       -0.011901005 -0.12406414 -0.08169933 -0.037055623
000340 ed 16 b7 3d 1c 94 8f 3d f2 ec d1 bc 05 72 58 3d
       0.089399196 0.070106715 -0.02562568 0.052843112
000350 d7 8f ea 3c 5d eb ab 3d 02 0b a0 3d e1 56 14 3d
       0.028633041 0.08394501 0.078145996 0.036215667
000360 2c 79 fd bc 62 ab 00 be 5e a8 07 bd f6 dc 7b 3d
       -0.030941568 -0.12565377 -0.03311955 0.06149002
000370 3b 04 bb bd 02 40 da bb 6e dc 2b 3d 96 81 9e bd
       -0.09131666 -0.0066604624 0.041958265 -0.0773956
000380 8e ed 6c bc 30 e7 98 bb de db ce bd 49 8a 45 3d
       -0.014460934 -0.0046662316 -0.1010053 0.048227582
000390 1d a6 45 bc 8a e7 73 bd 72 de b9 bd 9d 4c 4b bd
       -0.01206353 -0.059546985 -0.09075631 -0.04963361
0003a0 c7 2a 92 3c dd cb c1 bb 56 ec 49 bc 09 65 04 3d
       0.017842663 -0.005914195 -0.012324413 0.032322917
0003b0 1e 83 b7 bd d0 f4 13 3d 0c 6c 74 3c 46 d8 a5 3a
       -0.089605555 0.036122143 0.0149183385 0.0012652955
0003c0 fc 8e 62 3b 78 18 12 3e 45 81 cd 3d 35 61 e5 3b
       0.0034570089 0.14267147 0.10034422 0.0070001134
0003d0 12 82 7e bd 26 b3 67 bd 99 37 2e 3d d3 ba b6 bd
       -0.062135763 -0.056567334 0.04253349 -0.08922353
0003e0 a9 cc 8f bd 7b 6f 57 3d e5 c7 e2 bd bb 98 f0 bd
       -0.07021458 0.05259655 -0.11073283 -0.11747881
0003f0 60 3f bc 3d 1b 5a ba bd d2 24 1e bd b5 c7 af 3d
       0.09191775 -0.090992175 -0.038609333 0.08583013

encoder2.encoder.0.convolutional.bias f4 [32]
000000 fe b5 68 bd 60 68 6a 3e c0 66 7e be c9 e6 16 bd
       -0.056814186 0.22891378 -0.24843884 -0.036841188
000010 a2 92 bb 3d bc c0 85 bd ef db 1b 3e 99 ac 0a bd
       0.09158827 -0.06530902 0.15220617 -0.03385601
000020 93 bf a8 bd b5 13 1f 3e 82 d0 7d 3d 78 50 ba bd
       -0.08239665 0.15534861 0.061966427 -0.090973794
000030 e0 06 a1 3d f7 11 e8 3c 02 cd 12 be 80 34 92 3c
       0.078626394 0.028328879 -0.14336017 0.0178473
000040 3f fd d2 3c 5f 72 7b bc 2b bf 75 3d 83 a7 91 3d
       0.025755523 -0.015347092 0.059996765 0.071120284
000050 38 f2 b4 bb 4d 52 24 be b2 6b 42 be 4f b9 32 be
       -0.005522039 -0.1604702 -0.18986395 -0.17453502
000060 a1 f3 10 3d 5a a2 b7 3e ed 58 b8 3e 58 2d 6f bd
       0.035388593 0.35866052 0.36005345 -0.058392853
000070 74 11 2d 3e 68 d1 ad 3d 4e 90 21 bc 2e a1 c9 bd
       0.16901189 0.08487207 -0.009861065 -0.09845196

encoder2.encoder.0.bnorm.weight f4 [32]
000000 84 85 7f 3f ae 28 81 3f 76 44 72 3f 51 2a 70 3f
       0.99813104 1.009054 0.94635713 0.9381457
000010 5e af 79 3f c2 15 86 3f fe 33 82 3f ce bc 73 3f
       0.97533214 1.047539 1.0172117 0.9520997
000020 56 88 74 3f 4f dc 87 3f 99 c5 80 3f e5 89 7c 3f
       0.9552053 1.0614108 1.0060302 0.9864791
000030 d6 21 8a 3f 38 ce 7f 3f 56 e2 84 3f 17 ce 86 3f
       1.0791576 0.9992404 1.0381572 1.0531644
000040 c5 45 83 3f f0 19 77 3f 70 34 8c 3f 2b e9 7c 3f
       1.0255667 0.9652395 1.0953503 0.98793286
000050 1f ee 7d 3f 47 6a 81 3f 8a 25 87 3f 70 ff 79 3f
       0.9919147 1.0110558 1.0558331 0.9765539
000060 c0 55 80 3f 62 7f 87 3f ae d0 89 3f 05 a4 7a 3f
       1.0026169 1.0585749 1.0766809 0.97906524
000070 0d 09 82 3f e0 3a 8b 3f 8b 99 81 3f 89 9e 70 3f
       1.0159012 1.0877342 1.0124983 0.93991905

encoder2.encoder.0.bnorm.bias f4 [32]
000000 2c 6d 65 bd 1d 09 38 bb 78 f8 2c be df c0 ab bd
       -0.056012318 -0.0028081604 -0.16891658 -0.083863966
000010 a6 e2 4c 3d 4f 9c 0a 3e f1 d2 f4 bc 66 5b bf bd
       0.050020836 0.1353619 -0.029885741 -0.09343605
000020 82 11 d6 bd be 91 4a 3c 10 8f ac 3c 0f d7 b7 bd
       -0.10452558 0.012363849 0.021064311 -0.08976566
000030 59 12 a3 3a e1 ba 18 be f0 f1 d7 bc 7e 2c e2 bc
       0.0012441381 -0.14915039 -0.026360482 -0.027609106
000040 1a ba 83 3c bd 49 4f be a2 65 fb 3c af dd 2f bd
       0.016079951 -0.20242973 0.03068811 -0.042936023
000050 35 1a fa bd 7c 88 1b be 29 75 2f be a4 7a 54 be
       -0.1221203 -0.15188783 -0.17134537 -0.20749909
000060 36 23 0a bd 7c a4 06 3e 2b 1d cd 3c 73 f3 c3 bd
       -0.033724986 0.13148683 0.025038322 -0.09567919
000070 97 0c 85 3a 3a f4 f3 3d ea 2a 07 be 1e 59 08 be
       0.0010150847 0.11911817 -0.13199964 -0.13315246

encoder2.encoder.0.bnorm.running_mean f4 [32]
000000 4e b4 f4 3f 6c fc bd bf 03 7f 96 3f 0b 32 d2 bf
       1.9117525 -1.4842658 1.1757511 -1.6421522
000010 95 2c bd 3f 9c c9 38 bf 56 ee c8 bd c5 58 da bf
       1.477923 -0.7218263 -0.09811084 -1.705834
000020 eb 6d 37 40 3a 7b 37 bf 76 1c 2d 3f 40 68 f7 3f
       2.8660839 -0.71672404 0.6762155 1.932869
000030 ec c5 0b bf e7 c4 4b bf 20 38 32 be 5e 3f bf bd
       -0.5459888 -0.79597324 -0.17404222 -0.09338258
000040 cc 59 42 bf 75 75 9b 3f 6a 39 d1 be 9e 83 f5 3e
       -0.7591827 1.214522 -0.40864116 0.47951978
000050 34 e8 be 3e 50 e4 a0 3f a9 13 ed 3e fe fb 5a 3f
       0.37286532 1.2569675 0.46304062 0.8554076
000060 a4 92 3a bf a5 62 c9 bf 26 63 78 bf a5 2d a7 bf
       -0.72880006 -1.5733229 -0.9702629 -1.3060805
000070 9d 87 69 bf 84 3c 60 bf d0 01 04 40 d6 13 25 3f
       -0.91222554 -0.8759234 2.0626106 0.6448339

encoder2.encoder.0.bnorm.running_var f4 [32]
000000 d0 f9 62 3f 30 2f 2e 3f 82 4e 27 3f 52 d5 4f 3f
       0.88662434 0.6804075 0.6535417 0.81184876
000010 c0 cb 36 3f df 53 1d 3f 49 47 f0 3e 51 14 63 3f
       0.7140465 0.614561 0.46929386 0.88702875
000020 e4 f3 ae 3f 1e 35 37 3f c1 2b 1c 3f 7b c3 66 3f
       1.366818 0.71565425 0.61004263 0.9014203
000030 6d a4 25 3f d2 fc 0d 3f 08 97 06 3f e9 23 fc 3e
       0.6470402 0.554639 0.52574205 0.49246147
000040 cf f4 59 3f c7 47 3a 3f 40 bb f6 3e 03 1d 05 3f
       0.85139173 0.72765774 0.48189735 0.51997393
000050 43 ec 43 3f 5a 75 42 3f b0 96 fe 3e 3e a5 f0 3e
       0.7653238 0.75960314 0.4972434 0.4700107
000060 95 93 32 3f 33 e9 40 3f 9f 09 07 3f 18 fd 41 3f
       0.6975644 0.75355834 0.52749056 0.75776815
000070 b8 40 26 3f 0b 3b 1d 3f 7f 04 90 3f 8e ba 1f 3f
       0.649425 0.6141822 1.1251372 0.62394035

encoder2.encoder.1.convolutional.weight f4 [32, 32, 3, 3]
000000 55 eb b5 ba 48 0e 4d bc cc f4 5c bd 14 72 ca bb
       -0.0013879339 -0.012515612 -0.053944394 -0.00617815
000010 5d be 2f 3d c4 10 78 bd ea 0a f6 3c 1f f3 6f 3d
       0.042906154 -0.060562864 0.030034501 0.058581468
000020 97 31 16 3d aa 67 b3 bc 72 fa 59 3d c8 61 79 bb
       0.036668386 -0.021900017 0.05321736 -0.0038052667
000030 61 24 b4 3c 72 a3 25 3d 5a b4 05 bc e9 ac 5d 3d
       0.021990003 0.040439077 -0.008160675 0.054119978
000040 03 e8 92 3c 06 52 cb b9 de e4 10 3d e7 9b 31 3d
       0.017932897 -0.0003878029 0.035374515 0.04336157
000050 73 75 a3 3d fe 4c 5e 3d e7 c7 35 bc e6 3b f2 3c
       0.07981386 0.054272644 -0.011095024 0.029569577
000060 12 71 1c bd 87 2a 0c 3d a0 bb 09 bd 95 7b 4e 3d
       -0.03819377 0.034220245 -0.0336262 0.050410826
000070 b1 10 36 bb 4b 45 c4 3d a4 48 21 bc 60 1e 8c 3d
       -0.0027780945 0.09583529 -0.009843979 0.06841731
000080 06 06 6b 3d a2 57 22 bd d0 3b 34 3d fe 2a 60 bc
       0.05737879 -0.039634354 0.044002354 -0.013682125
000090 5e be 5a bd 03 3d fc bc 2a d8 62 bd fc a6 98 bc
       -0.053404205 -0.030790811 -0.05538193 -0.018634312
0000a0 9b 78 4e bd df 07 e7 bd b2 46 ae 3b 7b 4f 11 bd
       -0.050407987 -0.11280798 0.005318486 -0.03547619
0000b0 32 81 14 bd 8e 4d eb 3d 56 a4 e4 3b a6 1d 49 bd
       -0.036256023 0.11489402 0.006977598 -0.04910054
0000c0 46 d3 f4 3d c4 97 1b 3d 38 f6 f7 3c 16 a4 99 3c
       0.1195436 0.03798653 0.030268773 0.018755
0000d0 a8 c8 a5 bc 02 aa 39 3c da a2 b0 3d 14 aa e6 3c
       -0.020237282 0.011332037 0.086248115 0.028157271
0000e0 30 76 ee 3c 69 7d 5c bd f4 ca 42 bd 4f 0f d8 bd
       0.02910909 -0.053830538 -0.047556832 -0.10549795
0000f0 76 a2 10 bd 60 7a 2c bd 02 4b 60 bd a0 03 08 3e
       -0.035311185 -0.042108893 -0.054759033 0.13282633
000100 db 1b eb 3d 0d 24 2b 3e c1 83 0c 3e a6 aa 06 3e
       0.114799224 0.16712971 0.13722135 0.13151035
000110 71 20 ba 3d 5f b2 ce 3c 22 4f f2 3c 49 56 e7 3d
       0.09088219 0.025231538 0.02957875 0.112957545
000120 8e 13 39 bd f2 46 35 bc 2a 62 b0 3c 30 de 60 bd
       -0.045184664 -0.011064278 0.021531183 -0.054899395
000130 d6 8a 17 3d 15 c7 97 3c 6b f6 f0 bb 6b fb 22 3d
       0.03699764 0.018527547 -0.007353594 0.039790552
000140 64 6e 7e 3c 10 cf ca bd 04 f2 2d be 54 0a 0c be
       0.015529249 -0.09902775 -0.16986853 -0.13675815
000150 66 83 89 bd 0d 30 a7 bd 5b 25 fa bd 90 38 d4 bc
       -0.067145154 -0.08163462 -0.12214156 -0.025905877
000160 35 51 7a 3c 56 db 15 bd 3f 37 41 3b 19 c0 84 bd
       0.01527815 -0.03658613 0.0029482392 -0.06481952
000170 3b 44 d9 bc 5e ce ae bd fe 70 69 3c 69 57 87 bd
       -0.026521793 -0.08535455 0.014248131 -0.06608469
000180 24 a0 22 bd ac e1 8d bd b4 d3 a0 bd 58 40 b7 bd
       -0.039703503 -0.06927809 -0.07852879 -0.089478195
000190 e5 f8 79 bc ab 20 12 bd 10 4f 50 bd 01 d4 47 3a
       -0.015257095 -0.035675686 -0.05085665 0.00076228386
0001a0 29 ab ed bc 49 54 85 bd 81 95 79 3a 54 a4 85 bd
       -0.02901228 -0.06510217 0.0009520874 -0.06525484
0001b0 a7 24 bb ba c5 86 b4 bc 97 61 dc bd 68 49 36 3d
       -0.0014277891 -0.02203692 -0.10760801 0.0445036
0001c0 7b 16 74 39 54 15 e2 bd 57 43 90 bb 1d 75 95 3b
       0.00023278028 -0.11039224 -0.004402559 0.00456108
0001d0 eb ba d7 bd 39 dd a4 3d b4 01 0e 3d 5e 3f 85 bb
       -0.10533699 0.080500074 0.034669593 -0.004066392
0001e0 0b 46 81 3a 58 e5 51 3d 4d e5 fd 3c 71 48 a4 3d
       0.0009862793 0.05124411 0.030993128 0.080216296
0001f0 bc 7c c6 3d 57 72 ce bc 37 d4 22 bd 08 19 1f bd
       0.0969176 -0.025201006 -0.039753165 -0.03884223
000200 85 fb 7b bb 76 d7 4d bc db 45 1d 3a 94 de e7 bc
       -0.0038449478 -0.012563577 0.0005999484 -0.028304376
000210 9a cd ca bd 43 1c 3c bb 31 1e 36 bd 39 30 47 3c
       -0.09902497 -0.0028703369 -0.044462387 0.012157493
000220 29 b2 6e bd 98 9a a7 bc b9 8a 00 3d a1 31 52 3c
       -0.058275376 -0.020459458 0.031382296 0.012829215
000230 00 4c 33 3d b6 a0 c4 3c 60 f1 2a 3d d5 3e e4 3b
       0.04377365 0.024002414 0.0417341 0.006965498
000240 8f b4 30 bd 35 0e 18 bd 69 11 a3 3c 1c e2 a8 3b
       -0.043140944 -0.037122924 0.019905763 0.0051539075
000250 87 07 30 3d 9c 03 b8 3c d5 19 f1 3b c9 44 9f 3c
       0.04297593 0.022462659 0.0073578157 0.019441979
000260 a9 b4 81 bc ca 91 9b 3d a3 f8 8e 3d 65 70 a6 3d
       -0.015833216 0.075961664 0.069810174 0.08126906
000270 19 5a b5 bc 99 a5 3b 3d 0f 74 39 3d 6c dc e0 3c
       -0.022137688 0.045812223 0.045276698 0.027448855
000280 ad 9b 49 bd 3b 7f 19 3d 87 69 d4 3c bf 02 dd bb
       -0.04922073 0.037474852 0.025929226 -0.006744712
000290 e7 a2 7e bc 3c 03 71 3d 46 1d 9c 3d 5b e1 8e 3c
       -0.015541769 0.058840975 0.07622771 0.017441442
0002a0 1d 34 39 bc 1d 68 26 3d 47 38 7b bc 0e a6 83 3d
       -0.011303929 0.040626634 -0.015333242 0.06428157
0002b0 d8 2c 6e 3d 41 df 03 bd 3d d6 4e 3c ef 8b b9 3c
       0.058148235 -0.032195333 0.012624321 0.022649733
0002c0 ae ee 56 bd 3c 25 5c bd c6 5c e2 bc e3 1c 17 3d
       -0.052473716 -0.053746447 -0.027632128 0.036892783
0002d0 f9 d1 b5 3d 52 48 da 3c 81 eb 1c bd f7 ec 13 3b
       0.0887794 0.026645813 -0.03831053 0.0022571662
0002e0 87 84 4e 3d 8c 5d 8e bd 85 b4 3a 3c 52 ed 2d 3d
       0.050419357 -0.069514364 0.011395578 0.042462654
0002f0 f2 eb bb 3c dc 4d b8 3a 73 09 9b bd bb 96 4f bd
       0.022939656 0.001406129 -0.07570162 -0.050680857
000300 d6 6e 9a 3c 7d d7 94 bd 9d ff 3e bc d8 96 83 bd
       0.018851679 -0.07267664 -0.011657623 -0.064252555
000310 fc 89 64 bc ed 78 81 bd 65 a0 9f bc 51 3c d1 3b
       -0.013948914 -0.06321893 -0.019485662 0.006385364
000320 62 04 92 3d dd 63 04 bd ed f7 41 bd a1 cf 18 3d
       0.07129742 -0.0323218 -0.04735558 0.037307385
000330 b2 c3 88 bc 41 cc 0a bd ae 88 aa 3d 6e 7e 1c bc
       -0.016694877 -0.033886198 0.08326851 -0.009551628
000340 7c 0f 12 bd 24 37 8c bb d6 d5 1e 3d 80 5e cb 3d
       -0.0356593 -0.004279034 0.03877815 0.09930134
000350 d9 b1 6f bc cd a4 27 3d 10 45 88 3d 75 4d c5 3d
       -0.0146298045 0.04092865 0.066537976 0.096339144
000360 5c 33 a7 bc b2 f8 a4 3c ef 72 c7 bc cf 4d 6e bb
       -0.020410232 0.020138118 -0.024346797 -0.0036362296
000370 bc 6b 12 bd c5 00 49 39 1f 76 fd bc 34 6b f2 3c
       -0.035747275 0.0001916914 -0.030940114 0.029592134
000380 8b 93 19 3d 36 f9 81 bb ce 40 97 3d cc 40 59 3d
       0.037494224 -0.003966476 0.073854074 0.05304031
000390 da 3c c8 3d 11 97 05 3c f8 9d 76 3d 21 5e ef bc
       0.097772315 0.008153693 0.060209244 -0.029219689
0003a0 67 48 f0 3c 78 b4 fd 3d 36 8d 9a 3d 09 27 6c 3d
       0.0293314 0.12387937 0.07546465 0.057654414
0003b0 07 2f 30 bd fa 0c 10 3c 59 6b 92 3d 15 c5 37 3d
       -0.0430136 0.008792156 0.07149381 0.044865686
0003c0 2d 22 ff 3d 5b e4 8a 3d c2 88 54 3c 5b 2b 99 bc
       0.124576904 0.067818366 0.012972059 -0.018697431
0003d0 c8 5f 94 bd 12 47 76 3d cb 53 92 bd 80 59 8e bd
       -0.07244831 0.06012637 -0.071448885 -0.069506645
0003e0 a3 8b 5d 3d a0 14 07 bd a4 74 85 3d 66 7e 91 3d
       0.054088246 -0.032978654 0.06516388 0.07104187
0003f0 14 af 66 3b 11 bd 9d bc dc 0f 1f bd 73 83 07 bd
       0.003519957 -0.019255193 -0.038833484 -0.033084344

encoder2.encoder.1.convolutional.bias f4 [32]
000000 37 0b 26 bd f9 7f 34 3e c1 67 89 bc 92 c6 07 bd
       -0.04053804 0.17626943 -0.016773107 -0.033148356
000010 33 67 fe bb 77 c5 c0 3c dc 1f 8c bd 4c 9f 82 bd
       -0.007763767 0.023531659 -0.06842014 -0.0637804
000020 54 0b 21 be 4b de c6 3d e8 f1 f4 3d 50 f1 b5 bd
       -0.15726978 0.09710368 0.119602025 -0.08883917
000030 6c 46 a8 bd 56 4f 98 3d ec 5d c9 3d 94 09 76 3d
       -0.08216557 0.07437007 0.09832367 0.06006773
000040 9f dc e6 ba 21 cb 25 3e ce f3 84 3d ed dd 9d 3c
       -0.0017613358 0.16190769 0.064918146 0.019270862
000050 f7 62 f3 be e5 15 28 bd ae 38 91 3d d5 ff c9 bd
       -0.47536442 -0.041036505 0.07090889 -0.09863249
000060 d0 71 c2 3d 0f 9e 8c be f8 6d 90 bc 79 08 df bd
       0.09494364 -0.2746434 -0.017630562 -0.10890288
000070 05 a9 04 3d e1 00 16 bb f4 fd 9e 3d 91 a2 37 bc
       0.032387752 -0.0022888707 0.077632815 -0.011208192

encoder2.encoder.1.bnorm.weight f4 [32]
000000 7e 16 72 3f 8f dc 88 3f e4 fe 7b 3f 55 11 87 3f
       0.9456557 1.0692309 0.9843581 1.0552164
000010 ed f3 89 3f d8 c2 6b 3f 30 41 8b 3f 61 15 86 3f
       1.0777565 0.9209418 1.0879269 1.0475274
000020 34 10 81 3f 27 4e 80 3f 0d 6d 79 3f fc a3 83 3f
       1.008307 1.002385 0.97432023 1.0284419
000030 29 80 83 3f d9 39 80 3f 38 80 82 3f 96 8a 73 3f
       1.0273486 1.0017654 1.0195379 0.9513334
000040 06 4b 86 3f eb 1c 89 3f 6c 5c 78 3f a2 be 8b 3f
       1.0491645 1.071195 0.97016025 1.0917552
000050 5b 28 75 3f f5 b1 80 3f 40 5b 8b 3f 6e 42 80 3f
       0.957647 1.0054308 1.0887222 1.0020273
000060 0f c4 87 3f 4f 40 6c 3f 13 ad 6b 3f ed 9c 79 3f
       1.0606707 0.9228563 0.92060965 0.97505075
000070 43 7a 88 3f cd 73 73 3f 96 fb 7b 3f bd 6f 89 3f
       1.0662311 0.9509857 0.98430765 1.0737225

encoder2.encoder.1.bnorm.bias f4 [32]
000000 d7 1e cc bc 47 ee 35 3b f6 d8 95 bd cf fa 83 bd
       -0.02491705 0.0027760433 -0.07316773 -0.06444322
000010 27 c2 ff 3c 83 9d ae bd a9 cf df bc b7 d5 0f 3c
       0.031220509 -0.08526137 -0.0273207 0.008778981
000020 af ee 23 be 46 85 af bb 2c a8 e9 bd a2 f8 8b bd
       -0.1600902 -0.0053564636 -0.11409029 -0.06834532
000030 8f be 68 bd f4 67 3f bd 7c 80 c8 3c fe 77 b6 bd
       -0.056822356 -0.046729997 0.024475329 -0.089096054
000040 83 33 60 bc 6b b7 0d 3d e6 44 65 be f2 13 30 3c
       -0.013684156 0.03459875 -0.22389564 0.010746943
000050 51 bd 7b be 65 c5 80 bd 80 b7 ae bc e0 67 c8 bd
       -0.24583937 -0.0628765 -0.021327734 -0.097854376
000060 18 d6 83 bd d0 b4 60 be f2 e6 e5 bd 7e c4 c1 bd
       -0.064373195 -0.21943974 -0.1122569 -0.09461306
000070 56 c0 c7 bc 5a 40 27 be 0b a2 f7 bd 28 ec 97 bc
       -0.024383705 -0.16333142 -0.12091454 -0.018545225

encoder2.encoder.1.bnorm.running_mean f4 [32]
000000 96 18 7a 3e 5a 60 ce 3d d0 cf 4b 3e e6 7b 5b 3f
       0.24423441 0.10076971 0.19903493 0.8573593
000010 e7 a4 93 bd 35 30 32 3f 23 23 03 40 31 35 70 3f
       -0.07209187 0.6960481 2.0490196 0.93831164
000020 6a c9 19 3f 35 be ba 3e 58 f7 84 3d e3 cc 2b 3f
       0.6007296 0.3647324 0.064924896 0.6710951
000030 81 9d be 3e d6 53 ff 3d 10 16 07 3e 78 fd 9c be
       0.3722954 0.12467162 0.1319201 -0.3066213
000040 ab 87 06 bd 88 17 b9 3d 25 2d 1f be 3d 42 75 3f
       -0.032844227 0.09037691 -0.15544565 0.95804197
000050 8a e1 21 3c b5 fe d9 bc 5a 63 8d 3d 4f f2 be 3e
       0.009880433 -0.026610712 0.069037154 0.37294242
000060 a5 6b a0 bd aa 50 a4 be c0 21 f2 bd 26 be a3 3e
       -0.078330316 -0.32092792 -0.118228436 0.3198101
000070 bf 4b fb 3d f5 48 d5 be 05 47 55 be 6a 37 ea bd
       0.12270307 -0.41657224 -0.20827873 -0.11436351

encoder2.encoder.1.bnorm.running_var f4 [32]
000000 0e 92 3c 3f 6c 0c 8b 3f 9a 5b 2a 3f 36 c3 45 3f
       0.7366036 1.0863166 0.6654602 0.77250993
000010 87 f8 25 3f 74 a7 0a 3f 91 0c 9d 3f c8 88 81 3f
       0.6483235 0.54161763 1.226946 1.0119867
000020 e6 83 55 3f b9 93 34 3f 4e 1c 0f 3f a6 dc 42 3f
       0.83404386 0.70537907 0.55902565 0.7611793
000030 d3 e1 03 3f de 0d 8c 3f cf 94 7f 3f e0 e1 6c 3f
       0.51516455 1.0941732 0.9983644 0.9253216
000040 11 02 22 3f 00 80 19 3f 9c 7d 24 3f 85 f8 5c 3f
       0.63284403 0.5996094 0.64254165 0.8631671
000050 c4 a6 c8 3e 15 cf 15 3f 9a c8 28 3f 13 11 13 3f
       0.39189732 0.5851911 0.65931094 0.5744793
000060 bf b0 3b 3f f3 d9 34 3f e6 a7 8d 3f 7a 19 40 3f
       0.7331657 0.70645064 1.1066864 0.75038874
000070 fc 3c 45 3f 8a 21 37 3f 20 6d 95 3f 6d 2f 19 3f
       0.7704618 0.7153555 1.1673927 0.5983799

encoder3.encoder.0.convolutional.weight f4 [64, 32, 3, 3]
000000 e8 16 86 3b 93 04 6b 3d 5e d7 75 3d ba 19 0e bd
       0.004092086 0.05737741 0.060019843 -0.034692504
000010 25 ee 86 bd 01 e5 91 3d 95 c7 a4 bd f1 cb 19 bc
       -0.06588391 0.07123757 -0.0804588 -0.009387002
000020 b4 ea b0 3d e9 98 ea bc db 38 47 3d c2 e1 28 3c
       0.08638516 -0.028637366 0.048638206 0.010307731
000030 32 e6 55 3d cb 6c 60 3d 8f 3f 90 3c ff a4 c7 3d
       0.052221484 0.054791253 0.017608432 0.097482674
000040 61 84 ed 3c 6f af 54 3d 1c ff a0 bb 41 7d 69 3d
       0.028993787 0.05192512 -0.004913224 0.057004217
000050 d1 68 8d bd 25 36 16 bd 78 50 04 3d 8a 44 d7 3c
       -0.06904758 -0.03667273 0.032303303 0.0262778
000060 50 50 31 bd 85 04 7b 3d 67 22 b7 bc 76 02 43 3a
       -0.043289483 0.061283607 -0.022355272 0.00074390264
000070 b2 eb 41 bd 9e 88 5b 3d c3 ab 6f 3d 7f 4d d9 3c
       -0.047343917 0.053597085 0.058513414 0.02652621
000080 14 fa 65 bd 83 84 08 3e 49 2e 93 bd 8e 62 66 3c
       -0.056146696 0.13331799 -0.071865626 0.014061583
000090 bd 6e b6 3c b6 be 40 3c 13 cf 5f bd 8b ee ba 3b
       0.022269601 0.011764219 -0.05464084 0.005704706
0000a0 86 13 4a 3d 09 55 76 3c 6e c5 a4 bd f5 71 a1 3d
       0.049335025 0.015034922 -0.08045469 0.07883064
0000b0 69 69 30 bd 1a ba 13 bc af 4c 86 3d ea 3f 27 bd
       -0.043069277 -0.009016538 0.06557595 -0.040832438
0000c0 aa 91 ce bd 16 ad 05 bd 0b ea 09 3c f3 e1 46 bd
       -0.10086377 -0.03263577 0.008417617 -0.048555326
0000d0 03 88 01 bd e1 f7 51 3c 79 d4 68 3d ef 62 80 3d
       -0.03162385 0.012815447 0.056843255 0.0626887
0000e0 58 29 a1 3d 17 35 61 bc 80 b5 c9 bb a3 93 33 bb
       0.07869214 -0.013745568 -0.0061556697 -0.002740123
0000f0 aa b5 79 bd 6e 09 79 bd 51 69 0f bd 7e 09 1c bd
       -0.060964264 -0.06080001 -0.035012547 -0.03809499
000100 fd eb a6 3d d8 ea 92 3d 71 56 9e bc a7 01 14 bd
       0.0815048 0.07173699 -0.019328328 -0.03613439
000110 eb e0 98 bc 4e af b3 3d c1 d1 00 3d 4d 91 5c bd
       -0.018661937 0.08773671 0.031450037 -0.053849507
000120 71 fe 29 3c 14 db 3f 3c 9b 3e c9 bc 4a 27 22 bc
       0.010375605 0.011709947 -0.024565985 -0.009897063
000130 d3 15 84 bd ca 3b 81 3c 28 e3 29 3d 1f 3b 35 ba
       -0.06449475 0.01577558 0.0414764 -0.0006913412
000140 76 ce b6 3c 86 74 5d 3d 74 08 d3 bc 93 af df bc
       0.022315245 0.054066204 -0.025760867 -0.0273054
000150 60 0c 81 bb 3c 4c 92 bd 0e f8 6f bd f0 d9 42 bd
       -0.003938243 -0.07143447 -0.058586173 -0.047571123
000160 8d 4c 6f bd 24 65 0f bd c3 d9 61 bc 37 91 60 bb
       -0.058422614 -0.035008565 -0.013784829 -0.0034266242
000170 47 be 05 bb 9b a4 9c bc c4 29 0d bd 90 48 94 3d
       -0.0020407604 -0.019121459 -0.03446366 0.07240403
000180 35 84 e8 3d fa 91 bc bb d7 f6 a5 3d 33 4c 77 3d
       0.113533415 -0.0057547064 0.081037216 0.060375404
000190 c2 41 79 3d 17 c5 53 3d 97 2b c1 bc 9d 12 70 bc
       0.060853727 0.05170163 -0.023580356 -0.014652875
0001a0 aa e5 d7 bc 60 86 45 bd 90 df 9e bd 4c b6 60 bd
       -0.02635463 -0.048223853 -0.07757485 -0.05486135
0001b0 77 cd 16 3d 7e d1 a8 3c 11 1a 9f 3d 0a 09 b9 bc
       0.03681704 0.020607706 0.07768644 -0.022587318
0001c0 8c 1d 83 3d 19 f9 62 bd b7 4d ab bd b6 3e 1d 3d
       0.0640212 -0.05541334 -0.08364432 0.038389884
0001d0 86 b5 f6 bd e3 45 de 3b 95 9e dd 3c 86 47 02 bd
       -0.120463416 0.0067832335 0.027053157 -0.03180649
0001e0 2d 9e 30 bc b8 02 70 3d 5f 1e b9 3c df 2a f3 bc
       -0.0107799 0.058596343 0.02259749 -0.029683528
0001f0 63 27 dd 3c c5 81 81 3d c0 f0 08 bc 21 c6 84 3c
       0.02699632 0.0632358 -0.0083581805 0.016207756
000200 ab 94 5e bd cf d1 7c bd 79 3e 11 bc 0e 55 5a bd
       -0.054341 -0.061723527 -0.008864992 -0.05330377
000210 f2 2c 70 3c f8 e1 99 3d 5d fb 02 ba 47 58 ba 3b
       0.014659153 0.07513803 -0.00049965625 0.005686793
000220 22 af a5 3d 7a 75 07 bd 1f eb 3a 3d d7 67 94 bd
       0.080900446 -0.03307102 0.045634385 -0.072463684
000230 57 40 63 bd 1a 46 42 3c 6f ba 8e bd f9 09 5e bd
       -0.05548128 0.011857534 -0.06969153 -0.05420873
000240 6b 41 03 3d d4 9e 82 3d dc f2 0c 3d 6c b9 ff 3c
       0.03204481 0.0637795 0.034411296 0.031216346
000250 7a c2 7b 3d 7d 8b be 3c c4 c0 a2 bd 0c e5 88 bd
       0.061464764 0.023259873 -0.079469234 -0.06684312
000260 d5 07 6e 3d 7b 2b ae 3b cb aa 76 3b 65 e6 0d bc
       0.058112938 0.005315242 0.0037638422 -0.008660887
000270 7a eb 72 bc 11 17 0d bb 2c d3 7a bd bc a3 ff bd
       -0.01482665 -0.0021528641 -0.061236545 -0.12482402
000280 ac 64 c7 bd 78 ba 01 be a5 be af 3c bc 9c 01 bd
       -0.097359985 -0.12668788 0.021453211 -0.031643614
000290 fc e1 91 bd a4 86 04 be ff 0b 0d be 65 b5 6c bd
       -0.07123181 -0.12941986 -0.13774107 -0.05779018
0002a0 dc 24 2d bd 9e 1a 12 bd bf 9b b3 bc 54 73 6e 3d
       -0.04227148 -0.035669915 -0.021924851 0.058215454
0002b0 d9 bf d7 3d bf 3b af 3c 08 4f d9 3d 7b 55 07 3d
       0.10534639 0.021390794 0.10610777 0.033040505
0002c0 b2 48 85 bd 3c ea 37 3b fd e5 72 bd 22 f5 86 bd
       -0.06508006 0.0028063199 -0.059301365 -0.06589724
0002d0 15 40 11 bc a8 dc 76 3c e7 1d 32 bd b0 fa 9b bd
       -0.008865376 0.015067257 -0.04348555 -0.07616174
0002e0 c9 c8 e3 3c 28 e6 ca bc 91 99 42 3d 76 51 90 3d
       0.027805703 -0.02476795 0.047509734 0.070467874
0002f0 31 28 5c 3d 09 01 c3 3c 4c 81 2c 3d 28 7c ca 3d
       0.053749267 0.023804205 0.042115495 0.09886962
000300 62 9c 1f bd ca 49 c9 bc 1c e9 2f 3c f9 c3 02 be
       -0.038967498 -0.024571318 0.01073673 -0.1277007
000310 5c 17 05 be 26 41 dc bd 3b ab 4e bb 7e 9f aa ba
       -0.12997192 -0.107546136 -0.0031535167 -0.0013017503
000320 8f 6b 59 bd 39 43 53 bc 2d 77 b5 bd f7 15 de 3c
       -0.05308109 -0.012894445 -0.088606216 0.027110083
000330 a0 53 32 3c db 10 a0 3d 83 0d c3 3d 26 da df 3b
       0.010884196 0.07815715 0.095240615 0.0068314252
000340 a4 fc 7d 3d a2 a6 8c 3c 68 65 bd bc 1e 39 6d bd
       0.062008515 0.0171693 -0.023119643 -0.0579158
000350 5f d0 03 3d 3f b8 14 bd 94 54 60 bd 38 76 b4 3d
       0.03218114 -0.036308523 -0.05476816 0.08811611
000360 d8 a5 d2 bd e4 29 95 bb 51 06 3d 3d 59 5f 9b 3d
       -0.102855384 -0.004552113 0.046148602 0.075865455
000370 fc a2 ab 3d 5e d2 97 3b c2 2f 5f 3d d4 cb 8f bc
       0.08380696 0.004633232 0.054488905 -0.017553248
000380 f4 2b 84 bc a7 19 00 3d a1 b4 28 3d f6 a3 8f 3c
       -0.01613424 0.031274464 0.041187886 0.017534237
000390 72 f3 b1 3b eb 5b 32 3b fd db a3 bc 91 eb 89 bd
       0.0054306323 0.0027215432 -0.02000236 -0.06734384
0003a0 4a d7 8e 3d 9b 2e 4d 3c 8a d1 ae 3c 91 d3 cf b9
       0.06974657 0.012523319 0.02134015 -0.00039639746
0003b0 6f 19 0a bd 47 fa ce bc 31 9a 4b bd ab f8 5a 3d
       -0.03371566 -0.025265826 -0.049707595 0.053459805
0003c0 8b 09 1b bd 65 8a e1 3c d4 f3 b4 3d 07 ab f1 bc
       -0.037850898 0.027531812 0.08835569 -0.029500498
0003d0 13 bb 64 bd 4d 98 9a bc 0e c9 b0 bc f0 83 c7 bc
       -0.05584247 -0.01887145 -0.021580245 -0.024354905
0003e0 dc a0 88 3c b6 e5 d0 bc dd 04 da bd 54 30 1e be
       0.016678266 -0.02550016 -0.10645459 -0.15448123
0003f0 b5 ea a6 bb 1d 50 04 3d 37 df b8 3d f7 d8 10 bd
       -0.005093897 0.032302964 0.0902695 -0.035363164

encoder3.encoder.0.convolutional.bias f4 [64]
000000 38 13 31 3e 27 43 4d be a0 0b 3a 3c 28 28 ed 3b
       0.17292488 -0.20045148 0.011355311 0.007237453
000010 b6 8b c5 bd 4e fd b3 bd 2a 48 08 3e 29 76 cb 3d
       -0.09645788 -0.087885484 0.13308778 0.09934647
000020 34 67 22 bd bc c2 0b bd 99 87 cd bd e7 e5 84 bb
       -0.039649203 -0.03412126 -0.10035629 -0.004055727
000030 da 44 45 bd da 56 90 3d b3 b2 da bc 11 0d b0 bc
       -0.048161365 0.070478156 -0.026696539 -0.021490606
000040 d1 b2 84 bd 8a a4 af bd f6 d2 82 3d 4a 03 13 be
       -0.06479419 -0.08576305 0.06387894 -0.14356723
000050 5d 72 bc 3d 69 d8 02 be 8c 4a 53 3d 51 de 1b 3e
       0.092015006 -0.12777866 0.051584765 0.15221526
000060 b2 11 46 3d 43 c3 4e 3d 94 b1 38 bd e5 81 52 be
       0.04835672 0.050479185 -0.045091227 -0.20557363
000070 4d cc 9e be 5e 57 cc 3d 54 ec 5c be 9b e6 a2 bd
       -0.31015244 0.099776015 -0.21574527 -0.07954141
000080 3c d6 32 3e 53 d5 66 3e 72 cd 41 3d 84 c6 73 3d
       0.17464536 0.22542314 0.04731507 0.05951549
000090 0e 4f e1 3d 7d 20 21 3e 0f 2c 85 3d 7b 30 fb 3b
       0.110014066 0.1573505 0.06502544 0.0076656914
0000a0 52 24 10 be 7a a1 4c be 3e 97 30 be 45 d7 b7 3c
       -0.14076355 -0.19983473 -0.17245194 0.022441516
0000b0 b7 b4 6e b8 a1 76 39 3d 2f ad 00 bd ff 8c 2e 3e
       -5.6911926e-05 0.04527915 -0.03141516 0.17045973
0000c0 6f c2 d8 bd 67 32 0b bc 80 26 4a 3d 5f d3 19 bb
       -0.1058396 -0.008495904 0.049353123 -0.0023471934
0000d0 e7 bc 99 3c 45 d1 ef bd af c3 48 be b8 ad b2 3a
       0.018766833 -0.11709837 -0.19605897 0.0013632094
0000e0 e3 ed de bc 9f cf ed bd 2f 25 29 3e 9e 01 d2 3d
       -0.027213043 -0.11611866 0.1651809 0.10254215
0000f0 d3 bb 43 be f8 7b ac 3c 64 b6 d9 3d ee c5 38 bd
       -0.19114618 0.021055207 0.106304914 -0.045110635
